xor.onnx (onnx, 1714 bytes, 3 tensors)

StatefulPartitionedCall/sequential/dense_1/MatMul/ReadVariableOp:0 f4 [4, 1]
0	0x40b168a8	5.5440254
1	0xc0b5424a	-5.664342
2	0x4123558c	10.208385
3	0xc0ee0cfa	-7.439084

StatefulPartitionedCall/sequential/dense/MatMul/ReadVariableOp:0 f4 [2, 4]
0	0xc0fd1dd6	-7.909892
1	0x40f5d59e	7.6823263
2	0x410def17	8.870872
3	0xc109e4f4	-8.618397
4	0x40b86f51	5.7635884
5	0xbfb28d5a	-1.3949387
6	0xc12167b8	-10.087822
7	0xc1039975	-8.224965

StatefulPartitionedCall/sequential/dense/BiasAdd/ReadVariableOp:0 f4 [4]
0	0xc022b97c	-2.542571
1	0xbfd23336	-1.6421878
2	0xc08538ea	-4.1631975
3	0x40483626	3.128305
