xorPrev.onnx (onnx, 1714 bytes, 3 tensors)

StatefulPartitionedCall/sequential/dense_1/MatMul/ReadVariableOp:0 f4 [4, 1]
000000 dc 58 e6 c0 9d bc db c0 e7 ac f7 c0 19 7a c4 40
       -7.198347 -6.866774 -7.7398562 6.1399045

StatefulPartitionedCall/sequential/dense/MatMul/ReadVariableOp:0 f4 [2, 4]
000000 58 9b b2 40 97 0e 9d 40 34 83 04 c1 7b fc f4 40
       5.581463 4.908031 -8.282032 7.6558204
000010 a0 d8 b0 40 7a 0d 9b 40 44 2d fa c0 97 cb ee 40
       5.5264435 4.845395 -7.8180256 7.4623523

StatefulPartitionedCall/sequential/dense/BiasAdd/ReadVariableOp:0 f4 [4]
000000 6e 32 06 c1 4c 85 ec c0 b0 d5 59 40 d7 07 49 c0
       -8.387312 -7.3912716 3.4036674 -3.1411035
