src/main/resources/ANDwithNorm.onnx (onnx, 3380 bytes, 9 tensors)

sequential_1/normalization_1/sub/y:0 f4 [1, 13]
000000 3e 6d 22 44 64 06 1c 42 13 2e a0 40 cd 08 95 47
       649.7069 39.00624 5.0056243 76305.6
000010 f2 a1 c4 3f dd 88 34 3f b1 c4 02 3f 80 84 c3 47
       1.5361922 0.70521337 0.5108138 100105.0
000020 1a 04 00 3f cb 76 80 3e 01 02 7f 3e b0 e6 e7 3e
       0.5000626 0.25090632 0.24903108 0.45293188
000030 ad 0c 0c 3f
       0.5470684

sequential_1/dense_7/MatMul/ReadVariableOp:0 f4 [4, 1]
000000 28 8b c4 be 27 df b7 3f dc ac 62 3f 6b b3 81 bf
       -0.38387418 1.4364976 0.8854501 -1.0132879

sequential_1/dense_6/MatMul/ReadVariableOp:0 f4 [4, 4]
000000 2b 0d 97 3f cd 65 4a bf cc 6d 80 be 09 f4 e4 3e
       1.1800894 -0.79061586 -0.25083768 0.44717434
000010 88 68 a2 3f eb 80 8e be 81 7a 52 bc e3 30 bb be
       1.268815 -0.27832732 -0.01284659 -0.36560735
000020 88 96 d2 be 73 d8 fd 3e 3e 61 30 bd c2 a1 14 be
       -0.4113047 0.495792 -0.043061487 -0.1451483
000030 77 91 36 bf 1b e5 84 3f 6b b4 66 3f b0 c4 83 be
       -0.7131571 1.0382417 0.90119046 -0.25735998

sequential_1/dense_6/BiasAdd/ReadVariableOp:0 f4 [4]
000000 d0 f9 cd 3e f9 89 ba 3e 77 3b 3d 3d b4 09 b2 3e
       0.40229654 0.3643339 0.04619929 0.34773028

sequential_1/dense_5/MatMul/ReadVariableOp:0 f4 [8, 4]
000000 0a d7 36 bf f5 76 b0 be 2f a1 13 bc 6e 62 91 3f
       -0.71421874 -0.34465757 -0.009010597 1.1358163
000010 24 54 77 be 84 82 66 3f 4d 4e 59 be 54 c0 bf 3e
       -0.24153191 0.900429 -0.21221276 0.37451422
000020 71 59 b7 be 30 e1 1e 3f e5 da 3b bf 92 31 34 bf
       -0.35810426 0.6206236 -0.7338088 -0.7038814
000030 a3 3d 23 3f 79 2b 44 3f 1f 7e 10 3f c6 6b 83 3e
       0.63765925 0.76628834 0.56442446 0.25668162
000040 52 62 65 3e 8b 83 1e 3f 13 99 9c be ef 22 97 bd
       0.22400787 0.6191947 -0.30585536 -0.0737971
000050 f8 3a 26 3f 46 25 19 3d e5 6f 17 bd 92 05 cd 3d
       0.6493373 0.037389062 -0.036971945 0.10010828
000060 f8 32 29 3f 50 c9 88 be 67 12 23 3f 56 61 aa be
       0.660934 -0.2671609 0.63699955 -0.33277386
000070 a5 84 3e bf 00 ce ee 3d 13 1d 84 3f bf f1 95 be
       -0.7442115 0.11660385 1.0321373 -0.29286

sequential_1/dense_5/BiasAdd/ReadVariableOp:0 f4 [4]
000000 43 cc 18 3f 2d d1 95 3d 97 08 00 3e a9 b0 b5 bd
       0.5968668 0.07315288 0.12503277 -0.08871586

sequential_1/dense_4/MatMul/ReadVariableOp:0 f4 [13, 8]
000000 65 fd 0a bc f7 81 0b be c1 3e 0d bd 2b 95 2f 3e
       -0.0084832655 -0.13623796 -0.034483675 0.17146747
000010 08 bb d7 bd 16 e7 26 3e e7 29 db bd 34 08 b1 bd
       -0.1053372 0.1629909 -0.107013516 -0.08644143
000020 55 0e 63 3e 0e 58 42 3f b0 eb 3a 3f 9d 27 48 bf
       0.22173436 0.7591561 0.7301588 -0.78185445
000030 f8 5d 54 bf 7e 2b 8d be cd 9a 0f bb c2 70 59 3f
       -0.82955885 -0.27572244 -0.0021912337 0.8493768
000040 ec d7 82 3d aa 86 90 3e 37 c4 5a 3d 0a 8f 26 3d
       0.0638884 0.2822774 0.05340978 0.040663756
000050 1b a9 bc 3d 6c 14 48 3e 17 c4 29 3e ea f0 a9 3d
       0.09211942 0.1953904 0.16578709 0.08297904
000060 5c 74 15 3e c2 5d 8d 3c 83 f2 87 bd 0f f5 9d bb
       0.14595169 0.017256621 -0.06638052 -0.004820473
000070 aa 66 4a be a5 a5 fd be a0 b6 a0 be 8c b6 ed be
       -0.19765726 -0.4954044 -0.31389332 -0.46428335
000080 a9 dd 43 3f 3a 38 07 3e 0f 36 0b bd 1e cf 27 3e
       0.765101 0.13205042 -0.0339871 0.16387603
000090 87 34 60 3c 51 45 3b 3e 6a 73 7d be a9 72 83 bf
       0.0136843985 0.18288161 -0.24751058 -1.0269367
0000a0 4b 50 83 bb 07 12 12 3e 28 89 0c 3e 13 4d 61 3e
       -0.0040073744 0.1426469 0.13724196 0.22002058
0000b0 35 cb 00 3e 3f 23 c8 bb b9 cb 03 bc eb c6 c5 3d
       0.12577517 -0.0061077173 -0.008044177 0.09657081
0000c0 5b 00 2c bd 76 45 05 3f 07 35 49 3f 2a 4b 63 3f
       -0.041992527 0.52059114 0.7859654 0.88786566
0000d0 67 35 68 be aa c8 3e be 3d 85 bf be 50 02 10 be
       -0.22676621 -0.18631235 -0.3740634 -0.14063382
0000e0 af e6 59 3c 68 36 35 bd 9f c0 9a bc b1 2c d3 bd
       0.013299628 -0.04424134 -0.018890677 -0.103112586
0000f0 6d ba 21 3e c2 cb 2e 3e db 71 3f bd 00 49 ec 3d
       0.15793772 0.17069915 -0.04673944 0.11537361
000100 1a c6 56 be 8b 6c fb 3e 7a b0 75 3d 00 82 89 be
       -0.20974007 0.4910625 0.059982754 -0.26856995
000110 bd 44 f6 be 93 9f c7 3e 05 fd 13 3f 95 fd 8a be
       -0.48099318 0.38988933 0.5780795 -0.27146593
000120 ec 60 c1 be c7 c0 9f bd d5 8f 77 be 7f 8c 0c bf
       -0.37769258 -0.07800441 -0.24175961 -0.5490188
000130 01 cb 24 3e f5 4f 64 3e a6 f0 42 bf 7a 2b 8b bc
       0.16093065 0.22296126 -0.7614845 -0.016988505
000140 8e 0d 82 be 2f df fd 3e 76 a1 09 be b3 c3 d9 bd
       -0.25400966 0.49584338 -0.13440499 -0.1063303
000150 eb 81 8b 3e 9a df 82 3e 6b f7 e3 be 35 d6 55 be
       0.27247557 0.2556122 -0.44524702 -0.20882495
000160 29 04 fa 3e 2f 27 85 3e ca 8f 03 be 9f 83 9e 3e
       0.488313 0.26006457 -0.1284782 0.30959794
000170 65 96 ab 3e 6c 61 b8 be b7 22 40 3e a3 ec a4 bd
       0.3351318 -0.36011827 0.18763243 -0.08052947
000180 75 c7 e6 3e 19 b4 67 3e ea 53 02 3d 77 f6 1c 3f
       0.4507405 0.22627296 0.031818308 0.61313576
000190 9b 9f ba 3d 53 94 08 3f a3 3f 3d be 34 ce af bd
       0.091124736 0.53351325 -0.18481307 -0.08584252

sequential_1/dense_4/BiasAdd/ReadVariableOp:0 f4 [8]
000000 ba e7 a3 be 07 ba 79 be 2c 46 95 be e1 cb a9 3e
       -0.3201273 -0.2438737 -0.291551 0.3316336
000010 a5 a0 16 3f da 32 c6 3e ba 9c eb 3e ab 44 2c 3e
       0.58838874 0.38710672 0.4601801 0.1682307

ConstantFolding/sequential_1/normalization_1/truediv_recip:0 f4 [1, 13]
000000 75 0c 29 3c 80 11 c3 3d 53 61 b1 3e 3b 58 86 37
       0.010317911 0.09524822 0.34644565 1.601513e-05
000010 ae 88 db 3f 03 5e 0c 40 aa 07 00 40 30 1c 91 37
       1.7151086 2.193238 2.0004678 1.7298473e-05
000020 01 00 00 40 aa 9f 13 40 4f fe 13 40 2a 92 00 40
       2.0000002 2.3066201 2.3123968 2.0089211
000030 2a 92 00 40
       2.0089211
