src/main/resources/bank2.onnx (onnx, 3751 bytes, 7 tensors)

StatefulPartitionedCall/sequential_1/dense_7/MatMul/ReadVariableOp:0 f4 [4, 1]
0	0xbeade26d	-0.33961812
1	0xbf0a54ea	-0.5403582
2	0xbf146c60	-0.5797787
3	0xbf454b8b	-0.77068394

StatefulPartitionedCall/sequential_1/dense_6/MatMul/ReadVariableOp:0 f4 [4, 4]
0	0x3f49bc51	0.78802973
1	0x3f517dc0	0.81832504
2	0x3f6ed3eb	0.9329211
3	0x3f16aae3	0.588545
4	0xbf70a6e8	-0.9400468
5	0x3cb90dc9	0.022589581
6	0xbe8b8327	-0.272485
7	0x3f8b030b	1.0860304
8	0x3f21a06b	0.63135403
9	0xbea482fc	-0.32131183
10	0xbd9cbda4	-0.076533586
11	0x3f6bfee9	0.9218584
12	0xbcd9c676	-0.026583891
13	0xbdfbd1c4	-0.12295869
14	0xbacc1c94	-0.0015572482
15	0x3f598028	0.84961176

StatefulPartitionedCall/sequential_1/dense_6/BiasAdd/ReadVariableOp:0 f4 [4]
0	0xbd639f7e	-0.055572025
1	0xbb240ffd	-0.0025033944
2	0xbc8f82a8	-0.017518356
3	0xbe05cb77	-0.13065897

StatefulPartitionedCall/sequential_1/dense_5/MatMul/ReadVariableOp:0 f4 [4, 4]
0	0x3f6078ae	0.8768414
1	0xbe921826	-0.2853405
2	0xbf3332b4	-0.6999924
3	0xbef35ea2	-0.47533137
4	0x3f85ab85	1.0442969
5	0x3eccc7a5	0.39996067
6	0x3f3403d7	0.7031836
7	0xbf3c2604	-0.7349551
8	0x3e6fa0b2	0.23401144
9	0x3d1df8c2	0.038567312
10	0x3e887704	0.26653302
11	0x3e95018f	0.29102752
12	0xbef9146d	-0.48648396
13	0x3ee896c8	0.45427537
14	0x3e381280	0.17975807
15	0x3f224441	0.633854

StatefulPartitionedCall/sequential_1/dense_5/BiasAdd/ReadVariableOp:0 f4 [4]
0	0x3cbcd68b	0.02305152
1	0x3d2a0a50	0.04151374
2	0x3d860cad	0.065453865
3	0xbbb48fa8	-0.005510289

StatefulPartitionedCall/sequential_1/dense_4/MatMul/ReadVariableOp:0 f4 [13, 4]
0	0x3d128ec6	0.03578069
1	0x3c94bc4c	0.018156193
2	0x3d43e12a	0.047822155
3	0x3e2d0eb4	0.1690014
4	0x3f308daf	0.6896619
5	0xbf3dcb65	-0.7413848
6	0xbdcaa3ba	-0.098945096
7	0xbf85f22c	-1.046453
8	0x3c427e64	0.011870954
9	0xbc73ab96	-0.014872452
10	0x3ea6a645	0.3254873
11	0xbd86d5fe	-0.065837845
12	0x3d84907d	0.064728715
13	0xbd11326a	-0.03544847
14	0xbeac73af	-0.3368201
15	0xbea8ca2f	-0.32966754
16	0xbd62c940	-0.05536771
17	0x3cd567e0	0.026050508
18	0x3c892d8e	0.016745355
19	0xb9b7d966	-0.00035066454
20	0x3c44b69e	0.01200643
21	0xbd63936b	-0.05556051
22	0x3ed8b035	0.42321935
23	0xbbaaad3a	-0.0052086385
24	0x3f67e11f	0.9057788
25	0xbc2ab82f	-0.010419889
26	0x3f1e93f4	0.6194451
27	0x3edeaf8c	0.43493307
28	0xbdc2855c	-0.094980925
29	0xbbd52ee8	-0.006505836
30	0xbc98768e	-0.018611219
31	0x3d919f7b	0.071104966
32	0xbe4b6062	-0.19860986
33	0xbe853431	-0.2601638
34	0x3e400dca	0.1875526
35	0xbf4e96d0	-0.8069887
36	0xbe9818bf	-0.2970638
37	0xbe94fc05	-0.29098526
38	0xbe0d84e3	-0.13820224
39	0x3e868713	0.26274928
40	0xbd626256	-0.05526956
41	0xbe749e04	-0.23888403
42	0x3ecf3659	0.4047115
43	0xbd9d948c	-0.07694349
44	0x3c8a6e54	0.016898312
45	0x3dcbdd04	0.09954265
46	0xbe6dc7f8	-0.23220813
47	0xbe50fb9b	-0.2040848
48	0x3e253424	0.16133171
49	0x3e341b21	0.17588474
50	0x3ce994eb	0.028513392
51	0xbabcc824	-0.0014402908

StatefulPartitionedCall/sequential_1/dense_4/BiasAdd/ReadVariableOp:0 f4 [4]
0	0xbf5a074d	-0.8516739
1	0x3f89a572	1.0753615
2	0x3e98a054	0.2980982
3	0x3f015907	0.5052647
