src/main/resources/bank.onnx (onnx, 3619 bytes, 7 tensors)

StatefulPartitionedCall/sequential/dense_3/MatMul/ReadVariableOp:0 f4 [4, 1]
0.8880375 -1.452285 1.2236477 1.4685948
00000000: 6d56 633f 7ae4 b9bf 7da0 9c3f eafa bb3f

StatefulPartitionedCall/sequential/dense_2/MatMul/ReadVariableOp:0 f4 [4, 4]
0.5579443 -0.8078325 0.09808373 0.7383658 0.2970863 0.89985126 -0.600604 -0.29205558
-0.4701907 -0.5156807 0.56556416 1.0201198 0.69389075 0.11790402 -0.33097288 0.5036072
00000000: 70d5 0e3f 1cce 4ebf 1fe0 c83d 8b05 3d3f
00000010: b21b 983e a75c 663f 2fc1 19bf 4f88 95be
00000020: d6bc f0be a603 04bf d0c8 103f 4993 823f
00000030: d3a2 313f aa77 f13d 4775 a9be 67ec 003f

StatefulPartitionedCall/sequential/dense_2/BiasAdd/ReadVariableOp:0 f4 [4]
-0.36464542 0.37540475 -0.009094913 -0.0741116
00000000: ceb2 babe 0d35 c03e d402 15bc d3c7 97bd

StatefulPartitionedCall/sequential/dense_1/MatMul/ReadVariableOp:0 f4 [4, 4]
0.061856337 1.0344107 -0.80871075 0.082205735 -0.16596863 0.9027613 -1.1089878 0.44547337
0.73597676 -0.43386427 0.2874105 0.7807318 -0.44141555 -0.5138759 0.3202617 -0.7046648
00000000: 125d 7d3d 9267 843f ab07 4fbf 7b5b a83d
00000010: aef3 29be 5d1b 673f 50f3 8dbf 1615 e43e
00000020: f968 3c3f 7523 debe 7827 933e 0ade 473f
00000030: 3801 e2be 5f8d 03bf 57f9 a33e ea64 34bf

StatefulPartitionedCall/sequential/dense_1/BiasAdd/ReadVariableOp:0 f4 [4]
-0.16123646 0.34989044 -0.09979878 -0.35841355
00000000: 2c1b 25be d724 b33e 4e63 ccbd fb81 b7be

StatefulPartitionedCall/sequential/dense/MatMul/ReadVariableOp:0 f4 [13, 4]
0.0117086945 0.0694619 -0.020812253 0.00397267 -0.55091894 -0.8550696 -0.13753717 0.058662184
0.019997794 -0.07186141 -0.027305895 -0.293625 0.12328294 0.1674943 0.4607981 0.017674683
0.5357479 0.3809974 1.1537821 -1.0090703 0.03370351 0.048029244 -0.05006893 0.14963959
-0.031557567 -0.2562774 -0.23235032 -1.1504366 -0.10471476 0.020512136 -0.054392155 -0.048580058
0.32501462 0.24308169 0.24547693 0.058837105 -0.6894718 0.30974495 -0.1494892 0.5250439
0.41064104 -0.18642479 0.21127905 0.028900709 0.32249328 -0.2908999 -0.39848617 0.2470405
0.4308067 -0.33228517 -0.5333758 -0.053577185
00000000: d3d5 3f3c 0a42 8e3d 757e aabc 2c2d 823b
00000010: 0609 0dbf d7e5 5abf 8bd6 0cbe c247 703d
00000020: 6ad2 a33c 132c 93bd 9db0 dfbc 0456 96be
00000030: c47b fc3d a083 2b3e bbed eb3e 7fca 903c
00000040: c626 093f 1712 c33e 22af 933f 3729 81bf
00000050: b10c 0a3d 50ba 443d 1415 4dbd 1f3b 193e
00000060: 8242 01bd cb36 83be 3eed 6dbe 8241 93bf
00000070: b174 d6bd 1109 a83c 4fca 5ebd e2fb 46bd
00000080: 5168 a63e 68ea 783e 4e5e 7b3e 2dff 703d
00000090: 3981 30bf e496 9e3e b213 19be 4769 063f
000000a0: 8b3f d23e 24e6 3ebe 8959 583e 2ec1 ec3c
000000b0: d71d a53e d5f0 94be 6106 ccbe 2ff8 7c3e
000000c0: b292 dc3e 4821 aabe 518b 08bf c073 5bbd

StatefulPartitionedCall/sequential/dense/BiasAdd/ReadVariableOp:0 f4 [4]
0.52624595 0.47856453 -0.40647832 0.5275521
00000000: 0eb8 063f 6906 f53e ed1d d0be a80d 073f
